cnn/cnn_model_SGD_mnist.pt (torch_old, 209124 bytes, 8 tensors)

conv1.weight f4 [4, 1, 3, 3]
0.7022252 0.5940714 0.25607434 -0.6110705 -0.49807242 -0.790572 -0.93164295 -0.5046532
-0.93145114 -0.5498152 -0.7918848 -0.7105416 0.09499465 -0.50164884 -0.32810122 0.88543445
0.8752796 0.82359666 0.7634032 0.4297595 -0.7547785 0.8006256 0.09896056 -0.77756774
1.28182 0.29271656 -0.5958202 -0.20468238 -0.93919444 -0.6929014 0.31539547 -0.40111008
0.37466797 0.8591192 0.70990735 0.7088117
00000000: 08c5 333f 1015 183f 2d1c 833e 1e6f 1cbf
00000010: 5903 ffbe ed62 4abf 2780 6ebf f430 01bf
00000020: 9573 6ebf b0c0 0cbf f6b8 4abf 0ee6 35bf
00000030: 8e8c c23d 0f6c 00bf e2fc a7be d5ab 623f
00000040: 5312 603f 3bd7 523f 646e 433f 7009 dc3e
00000050: 2a39 41bf cdf5 4c3f d6ab ca3d ae0e 47bf
00000060: ae12 a43f f2de 953e ac87 18bf 4298 51be
00000070: 0c6f 70bf fc61 31bf 847b a13e 4d5e cdbe
00000080: 7bd4 bf3e 3cef 5b3f 7dbc 353f af74 353f

conv1.bias f4 [4]
-0.11461776 0.19372617 0.94197124 0.68735564
00000000: b7bc eabd 2760 463e 0725 713f 8af6 2f3f

conv2.weight f4 [8, 4, 3, 3]
-0.57206637 -0.27546284 -0.030187752 -0.10160184 -0.5586653 -0.13517845 0.060785964 0.19154084
-0.17156972 0.041280787 0.2802044 -0.33686268 -0.12776597 0.6402606 0.581973 -0.03244628
-0.2828386 0.2933193 0.42185572 -0.17869292 -0.18690653 -0.0753124 0.22379178 0.30349714
-0.17281608 -0.29095647 -0.030073032 0.11979269 0.18142252 -0.63023543 -0.08522274 0.45709208
0.44995952 -0.22421151 -0.44063717 0.2160944 -0.30893335 -0.047337566 -0.0115324715 -0.32230496
-0.5148984 -0.39475164 -0.04086631 -0.28081813 -0.13340664 0.013947305 -0.0030197015 -0.024741888
-0.38984755 -0.18955159 0.31286037 -0.08249019 0.21864945 0.3489074 0.018368589 0.30867144
0.04042205 0.05917818 0.36563462 0.10844607 -0.18365791 0.09976067 -0.1592971 0.17932163
0.17397122 -0.047274757 -0.22874804 0.1606901 0.26637733 0.036282383 0.24082606 0.5139677
0.098434806 -0.14196013 -0.17576164 -0.45793366 -0.15566963 0.31292176 0.053222302 0.22714426
-0.033245597 -0.24714793 0.38566536 0.16613097 0.19020437 0.011091376 -0.35582027 -0.22034974
-0.029741762 0.02699456 -0.0132418275 -0.4098305 -0.19223991 -0.14646657 -0.0057000592 0.18392834
0.06587163 -0.124210306 -0.17031658 -0.16136138 0.42231652 0.19338566 0.46887895 0.1832169
-0.3528173 -0.13370562 -0.104263745 0.16094391 -0.4406805 -0.28722358 -0.101916075 -0.10846087
-0.29426584 -0.1157621 0.44334832 0.3596054 0.49794462 0.29601786 0.28307685 0.22595805
0.00036224938 0.024301833 -0.18848597 -0.19988753 0.08737825 0.10612777 -0.029097041 -0.12551714
-0.17598009 -0.26539448 -0.26691875 -0.16389595 -0.40335277 -0.56783885 -0.36984766 0.48757732
0.2964649 0.32361388 0.26124874 0.24723437 0.051244065 -0.23297021 -0.04140236 -0.09885776
0.5316673 0.19770713 -0.2780788 0.24916112 -0.14711113 -0.26388976 -0.022468379 -0.36364678
-0.20920119 -0.13819554 -0.12113867 -0.08873605 -0.094338 -0.00709848 -0.28812912 -0.09206048
0.031644296 -0.26879364 -0.3282174 -0.2844606 0.26569426 -0.2005158 -0.023227485 0.39209908
-0.457181 0.14641461 0.644099 -0.3656499 -0.07201366 0.012490771 -0.26774576 -0.100607894
-0.10463361 -0.008005238 -0.03561977 -0.10941988 -0.2974024 -0.23125622 -0.26399386 -0.22587372
0.022253534 0.33974868 0.43462676 0.3142001 0.06778834 -0.356189 -0.21212849 0.11123986
-0.33079496 -0.34280908 -0.3149611 0.16859975 0.1400171 -0.006478178 0.42067614 0.25081137
0.36412632 0.0324681 -0.03453941 -0.259009 -0.66024715 -0.53324044 -0.28641757 0.16549242
0.44336885 0.27509072 0.07405625 -0.14402631 -0.14423233 -0.024280094 -0.03179731 0.036808047
0.028624117 -0.5094743 0.23643789 -0.6902148 -0.06356613 0.28542146 -0.07229773 0.26540524
0.18092208 0.13506071 -0.12598804 -0.52208906 0.12693003 -0.41814235 -0.122483164 -0.39825737
-0.23676081 0.048795078 -0.6470131 0.09078983 0.40047103 -0.12857272 0.42551976 0.21615635
0.35727102 -0.034165893 -0.022085434 0.0109195635 0.07906217 -0.22103187 0.22621179 -0.30335197
-0.32347935 -0.088208854 -0.10470929 0.072149016 0.17773463 0.041191604 0.133094 0.04989531
00000000: f172 12bf 7709 8dbe 4e4c f7bc a014 d0bd
00000010: b004 0fbf 386c 0abe b4fa 783d 4823 443e
00000020: f9af 2fbe 0b16 293d f376 8f3e 4479 acbe
00000030: 15d5 02be 1ee8 233f 2ffc 143f 64e6 04bd
00000040: 39d0 90be f32d 963e 79fd d73e 47fb 36be
00000050: 6d64 3fbe 633d 9abd ac29 653e fa63 9b3e
00000060: b3f6 30be 3ff8 94be b85b f6bc df55 f53d
00000070: d3c6 393e 1c57 21bf 4389 aebd f907 ea3e
00000080: 1861 e63e b497 65be 329b e1be da47 5d3e
00000090: 832c 9ebe 09e5 41bd b1f2 3cbc 2805 a5be
000000a0: 62d0 03bf e31c cabe 6f63 27bd 65c7 8fbe
000000b0: c09b 08be 3d83 643c 2fe6 45bb 80af cabc
000000c0: 199a c7be d019 42be 3c2f a03e 9ef0 a8bd
000000d0: a4e5 5f3e fea3 b23e b979 963c 2f0a 9e3e
000000e0: 9791 253d d264 723d 7634 bb3e f918 de3d
000000f0: d210 3cbe 524f cc3d c71e 23be 17a0 373e
00000100: 8325 323e 2da3 41bd ed3c 6abe f28b 243e
00000110: 9c62 883e d69c 143d 1b9b 763e 6393 033f
00000120: 3098 c93d ff5d 11be dcfa 33be 4876 eabe
00000130: dc67 1fbe 4837 a03e a1ff 593d 8198 683e
00000140: 892c 08bd 5914 7dbe ee75 c53e 3d1e 2a3e
00000150: efc4 423e 9ab8 353c 132e b6be 5da3 61be
00000160: ffa4 f3bc b223 dd3c 40f4 58bc 4ed5 d1be
00000170: 8ada 44be 55fb 15be 90c7 babb b657 3c3e
00000180: b5e7 863d f961 febd 7867 2ebe eb3b 25be
00000190: df39 d83e e406 463e e710 f03e 369d 3b3e
000001a0: 78a4 b4be 20ea 08be 3b88 d5bd 7bce 243e
000001b0: e0a0 e1be f80e 93be 60b9 d0bd bc20 debd
000001c0: 03aa 96be ae14 edbd 8dfe e23e 331e b83e
000001d0: 99f2 fe3e a78f 973e 73ef 903e 8c61 673e
000001e0: 4aec bd39 a314 c73c 7702 41be 51af 4cbe
000001f0: 5ef3 b23d 8459 d93d eb5c eebc 9187 00be
00000200: 2034 34be c9e1 87be 93a9 88be 57d4 27be
00000210: 4184 cebe e35d 11bf ac5c bdbe bca3 f93e
00000220: 3fca 973e b8b0 a53e 65c2 853e 022b 7d3e
00000230: 4ce5 513d be8f 6ebe 8595 29bd f075 cabd
00000240: 591b 083f bd73 4a3e 5860 8ebe 1824 7f3e
00000250: 4da4 16be 8f1c 87be 9b0f b8bc e92f babe
00000260: d638 56be 2283 0dbe 8d17 f8bd 3fbb b5bd
00000270: 4834 c1bd 5e9a e8bb a985 93be 348a bcbd
00000280: 739d 013d 529f 89be 1c0c a8be d2a4 91be
00000290: 1409 883e 0454 4dbe 9147 bebc 36c1 c83e
000002a0: a113 eabe b6ed 153e ace3 243f 7736 bbbe
000002b0: e67b 93bd 17a6 4c3c f915 89be 830b cebd
000002c0: 254a d6bd 6728 03bc 09e6 11bd 8817 e0bd
000002d0: 2145 98be 6ece 6cbe 342a 87be 714b 67be
000002e0: 0b4d b63c 8af3 ad3e 6687 de3e d6de a03e
000002f0: 9dd4 8a3d 685e b6be 3638 59be b9d1 e33d
00000300: f55d a9be ac84 afbe 9542 a1be 6aa5 2c3e
00000310: a560 0f3e e546 d4bb dd62 d73e 596a 803e
00000320: c46e ba3e 45fd 043d 3279 0dbd d49c 84be
00000330: f505 29bf 7282 08bf 53a5 92be d876 293e
00000340: 3e01 e33e b1d8 8c3e ceaa 973d a27b 13be
00000350: a4b1 13be 0ce7 c6bc e53d 02bd 09c4 163d
00000360: 207d ea3c e86c 02bf c61c 723e ebb1 30bf
00000370: f62e 82bd c322 923e d510 94bd 32e3 873e
00000380: a343 393e 5b4d 0a3e 0203 01be a1a7 05bf
00000390: f2f9 013e c116 d6be 74d8 fabd 64e8 cbbe
000003a0: 6d71 72be 59dd 473d a7a2 25bf 05f0 b93d
000003b0: 8a0a cd3e 91a8 03be badd d93e 1758 5d3e
000003c0: 3aec b63e 89f1 0bbd 83ec b4bc f8e7 323c
000003d0: 59eb a13d 2e56 62be 10a4 673e f350 9bbe
000003e0: 169f a5be d8a6 b4bd d371 d6bd ddc2 933d
000003f0: 1100 363e 87b8 283d cb49 083e 065f 4c3d

conv2.bias f4 [8]
-0.18059961 -0.022820108 -0.029976483 -0.24882826 0.0051952717 -0.22408247 -0.15500438 -0.36740252
00000000: 1bef 38be 3cf1 babc 3e91 f5bc d6cc 7ebe
00000010: 193d aa3b e075 65be 78b9 1ebe 2f1c bcbe

fc1.weight f4 [128, 392]
0.039099537 -0.029059893 0.011101397 -0.07567421 -0.06097487 -0.014296543 0.040243182 0.039535023
0.0058629555 -0.033813827 -0.056164015 -0.010791198 0.05396997 0.020818701 -0.054803062 0.008854588
-0.047832746 -0.012585146 0.0061504906 -0.0028790627 0.05106901 -0.019405207 -0.06623688 0.11001496
0.04977935 -0.019448837 0.002323833 -0.026581826 0.02451048 -0.060523234 0.005532239 0.008640603
-0.0369521 -0.09396611 0.0007329193 -0.03990304 0.025015563 0.040747426 0.024710318 -0.09758191
-0.04945827 0.022338001 0.012013111 0.008303914 -0.0011280666 0.004494301 -0.052408874 -0.041842636
0.0239103 -0.044514745 -0.048707925 -0.020470366 -0.046921007 -0.032103863 0.049539443 -0.040202536
-0.027636249 -0.009825967 -0.0011889618 0.030266568 -0.027215865 0.017496437 -0.035973765 0.037593994
0.026036574 -0.0021909839 0.12110341 0.008551789 0.095700294 -0.0033000165 -0.022021286 0.008918614
0.17714518 0.08231773 -0.04251885 0.013849209 -0.033970498 -0.0045780195 0.045536146 0.049665216
-0.026580157 -0.06549444 -0.0050411704 0.049676914 0.023587978 0.01945524 0.056970976 -0.04030955
-0.056047067 0.041217797 0.012981666 -0.04444348 0.00018973155 -0.03611356 -0.043080084 -0.056089316
-0.000975474 0.028514948 0.049302787 -0.035172686 0.019367391 -0.014261103 0.033060294 -0.041688096
0.002081067 -0.013592415 -0.0073006903 0.010191204 -0.049842797 -0.019162882 -0.0038676187 0.055843852
-0.035559382 -0.038524877 -0.024686614 0.012425676 0.0067573083 -0.05430566 -0.047224168 0.001268939
-0.053854458 0.03624829 -0.04126206 0.016277766 0.055279046 -0.027368266 0.008650301 0.047693685
0.0022962824 -0.031852927 0.001727122 0.0063849236 -0.020920783 -0.011731138 0.013112388 0.060739454
-0.003481382 0.02597689 -0.018183041 -0.02468037 0.023980556 0.012448978 0.02354361 -0.01702554
0.027700044 -0.03446212 0.03956306 0.043076735 0.024031822 0.044981916 -0.0050816224 -0.010225115
-0.007897342 0.0057654586 -0.0037671314 -0.10068923 -0.083056495 -0.076323524 0.003410595 -0.011223019
0.029834002 -0.055304594 -0.15411276 -0.14421412 -0.0649121 -0.038679965 -0.017816124 -0.016163666
-0.050435573 -0.04231746 -0.039755054 -0.02107536 -0.0012341135 0.060797043 -0.039350703 -0.04198084
-0.032495625 0.027901024 -0.019924922 -0.008961739 0.0043840213 0.02867822 -0.041220948 0.035854243
0.034874402 0.053825587 -0.012612566 0.032565963 0.0022322328 0.00815816 -0.05585183 0.07644633
0.042636298 0.03492845 0.030780181 -0.016719671 -0.035165694 0.02389176 0.016644299 0.02577069
-0.021318343 0.029509434 0.013874277 -0.034545496 -0.009116661 -0.013906123 0.051570203 0.009226806
0.030153757 -0.05911899 -0.014407879 0.07056626 0.08462642 -0.022420626 0.040164404 -0.005592183
-0.030133316 -0.026807321 0.052791737 0.052394845 -0.047633927 0.009958505 0.07193595 0.007277598
0.0109541835 0.091040514 0.038204856 0.008566819 0.0002689397 0.06285536 0.0033496236 -0.006850508
-0.0091605345 0.02706728 -0.02976992 -0.032985058 -0.039813027 -0.045921385 0.044157397 -0.014712434
0.005062932 0.035803277 0.021479053 -0.028604373 0.038719762 0.0020775765 -0.012746732 -0.0024517523
0.037674863 0.008836932 0.027802289 -0.004333291 0.013847237 -0.06299989 -0.07840543 -0.09461939
00000000: d626 203d 030f eebc a2e2 353c 15fb 9abd
00000010: c9c0 79bd 0c3c 6abc 09d6 243d 7aef 213d
00000020: 091e c03b 5e80 0abd 3d0c 66bd 91cd 30bc
00000030: 9e0f 5d3d fb8b aa3c 2d79 60bd d512 113c
00000040: 45ec 43bd ee31 4ebc 0e8a c93b a8ae 3cbb
00000050: bd2d 513d abf7 9ebc 34a7 87bd 864f e13d
00000060: 6fe5 4b3d 2b53 9fbc 734b 183b 21c2 d9bc
00000070: 34ca c83c 36e7 77bd c947 b53b 5191 0d3c
00000080: 165b 17bd 4e71 c0bd 6221 403a 5f71 23bd
00000090: 70ed cc3c c6e6 263d 4b6d ca3c 06d9 c7bd
000000a0: c194 4abd 2ffe b63c a4d2 443c 240d 083c
000000b0: a2db 93ba ee44 933b b0aa 56bd 2f63 2bbd
000000c0: 89df c33c 1855 36bd f681 47bd 78b1 a7bc
000000d0: 3e30 40bd 577f 03bd dfe9 4a3d 6aab 24bd
000000e0: 6a65 e2bc 18fd 20bc f0d6 9bba 98f1 f73c
000000f0: cef3 debc b054 8f3c 3a59 13bd 29fc 193d
00000100: a74a d53c 9c96 0fbb 1105 f83d ce1c 0c3c
00000110: 84fe c33d 1745 58bb fc65 b4bc 611f 123c
00000120: 8c65 353e 3396 a83d 3f28 2ebd cbe7 623c
00000130: a624 0bbd 3603 96bb 1c84 3a3d c16d 4b3d
00000140: a1be d9bc f321 86bd 6730 a5bb 057a 4b3d
00000150: 933b c13c 9860 9f3c 665a 693d a01b 25bd
00000160: 9c91 65bd fed3 283d 0eb1 543c 5e0a 36bd
00000170: adf2 4639 d0eb 13bd be74 30bd e9bd 65bd
00000180: f4b6 7fba 2e98 e93c b8f1 493d 3c11 10bd
00000190: 5da8 9e3c 67a7 69bc 3b6a 073d 23c1 2abd
000001a0: 8362 083b b8b2 5ebc a13a efbb 02f9 263c
000001b0: f627 4cbd 7afb 9cbc e077 7dbb 86bc 643d
000001c0: b7a6 11bd 43cc 1dbd 953b cabc 1095 4b3c
000001d0: 696c dd3b 9d6f 5ebd 216e 41bd 8752 a63a
000001e0: 7e96 5cbd 1679 143d 6802 29bd f358 853c
000001f0: 486c 623d 6a33 e0bc feb9 0d3c 745a 433d
00000200: 3a7d 163b 3778 02bd 9960 e23a 9f38 d13b
00000210: 1062 abbc f633 40bc 57d5 563c efc9 783d
00000220: e627 64bb 7dcd d43c 9af4 94bc 7d2e cabc
00000230: df72 c43c ccf6 4b3c 87de c03c 2579 8bbc
00000240: 34eb e23c 2728 0dbd e00c 223d 3b71 303d
00000250: 62de c43c f53e 383d bd83 a6bb 3e87 27bc
00000260: da63 01bc 2cec bc3b fae1 76bb 2836 cebd
00000270: 8619 aabd 824f 9cbd 4a84 5f3b c1e0 37bc
00000280: 7066 f43c 1287 62bd bccf 1dbe deac 13be
00000290: a3f0 84bd e26e 1ebd 1ff3 91bc aa69 84bc
000002a0: 8895 4ebd 1355 2dbd 32d6 22bd 3ca6 acbc
000002b0: fac1 a1ba 5206 793d 342e 21bd 1af4 2bbd
000002c0: 221a 05bd b090 e43c 9739 a3bc 42d4 12bc
000002d0: d6a7 8f3b 96ee ea3c 4cd7 28bd e6db 123d
000002e0: 76d8 0e3d 3878 5c3d f0a4 4ebc e363 053d
000002f0: a74a 123b cea9 053c e3c4 64bd e58f 9c3d
00000300: 66a3 2e3d 2211 0f3d b826 fc3c b1f7 88bc
00000310: e709 10bd a7b8 c33c a059 883c 0e1d d33c
00000320: cea3 aebc c5bd f13c ef50 633c 947f 0dbd
00000330: 0c5e 15bc 82d6 63bc 473b 533d 082c 173c
00000340: 0305 f73c c126 72bd 060f 6cbc 0b85 903d
00000350: 9e50 ad3d 76ab b7bc 6e83 243d a23e b7bb
00000360: 25da f6bc 079b dbbc 263c 583d fa9b 563d
00000370: cb1b 43bd ff28 233c 2853 933d eb78 ee3b
00000380: 2d79 333c 7373 ba3d b27c 1c3d d85b 0c3c
00000390: 7a00 8d39 50ba 803d 5c85 5b3b 3a7a e0bb
000003a0: 1116 16bc 33bc dd3c 0ce0 f3bc 571b 07bd
000003b0: fc12 23bd 1018 3cbd 63de 343d 6c0c 71bc
000003c0: f4e6 a53b 75a6 123d d7f4 af3c b853 eabc
000003d0: 9d98 1e3d f327 083b abd7 50bc 94ad 20bb
000003e0: f550 1a3d c7c8 103c a0c1 e33c 48fe 8dbb
000003f0: 86df 623c 1606 81bd 0793 a0bd d0c7 c1bd

fc1.bias f4 [128]
0.034267727 -0.035818297 0.03465077 -0.04809288 0.040535234 0.020709308 0.06428979 0.07545126
-0.0060706614 0.016918411 0.002038067 -0.04528613 -0.003908894 0.027076516 -0.01659146 0.00035167337
-0.047177237 -0.008778214 0.032642618 0.045930088 0.025914999 -0.0241565 -0.0064217634 -0.031441458
0.012214029 -0.047655344 0.06064352 0.010597201 0.017364057 -0.03754123 0.029721191 -0.04377278
0.09647829 0.0011479552 0.04289966 -0.021576999 -0.044934772 0.04385286 0.04529534 -0.020223074
0.0011205665 -0.01704299 -0.019397713 -0.04919154 -0.035532262 -0.0019206406 0.052190598 -0.07073012
0.02721256 0.010966125 0.008553568 -0.007469271 0.032705206 -0.012719609 0.014978261 0.021178009
0.029504599 -0.024298273 0.029495986 0.021283235 0.04774479 0.010534609 -0.038188484 -0.034859147
0.008086367 0.015648978 -0.06097674 0.02820384 0.07755799 0.033736076 0.020306518 0.060367953
-0.032577 -0.018354291 0.019607576 0.07010972 0.027592393 0.0083956625 0.027422735 -0.018637806
-0.0054397094 -0.009757815 0.032295506 0.010952977 0.032474298 -0.020698607 0.002785572 0.079855636
0.0110327685 -0.014857388 -0.04784314 -0.052273363 -0.018166035 0.003874707 -0.057430383 0.03951205
0.03540835 0.053042755 -0.06311952 -0.009031836 0.045048792 0.012182801 -0.010987119 0.01857025
-0.039817866 0.044690326 -0.010874257 -0.00091268035 -0.00989493 0.03547367 -0.018789608 -0.00052851567
-0.03534104 -0.017387323 0.014914493 0.0019582233 0.0064921905 0.015647797 0.032753 -0.013593943
-0.028460942 -0.010036057 0.010013758 -0.025561446 0.05233797 0.04978597 0.06603191 0.00097367435
00000000: 515c 0c3d 35b6 12bd f7ed 0d3d 0afd 44bd
00000010: 4608 263d 91a6 a93c 5eaa 833d 3186 9a3d
00000020: 66ec c6bb 7b98 8a3c 1791 053b f37d 39bd
00000030: 2e16 80bb 92cf dd3c d0ea 87bc cd60 b839
00000040: eb3c 41bd 80d2 0fbc 44b4 053d 3021 3c3d
00000050: b14b d43c dae3 c5bc a86d d2bb c2c8 00bd
00000060: 5a1d 483c 4032 43bd 5765 783d e29f 2d3c
00000070: 113f 8e3c d5c4 19bd db79 f33c 164b 33bd
00000080: 6996 c53d fc76 963a 8eb7 2f3d 3fc2 b0bc
00000090: 860d 38bd 0e9f 333d 9b87 393d dcaa a5bc
000000a0: f9df 923a be9d 8bbc f4e7 9ebc 117d 49bd
000000b0: 478a 11bd 01be fbba cfc5 553d f4da 90bd
000000c0: e0ec de3c 43ab 333c 4424 0c3c c9c0 f4bb
000000d0: e5f5 053d e865 50bc 6167 753c 817d ad3c
000000e0: a1b3 f13c 2c0d c7bc 91a1 f13c 2e5a ae3c
000000f0: 0a90 433d 5a99 2c3c 876b 1cbd 77c8 0ebd
00000100: ae7c 043c 4932 803c bfc2 79bd bd0b e73c
00000110: b9d6 9e3d d72e 0a3d db59 a63c 6344 773d
00000120: 766f 05bd bd5b 96bc 11a0 a03c af95 8f3d
00000130: 7109 e23c f68d 093c a5a5 e03c 50ae 98bc
00000140: 973f b2bb 3edf 1fbc 4b48 043d 1e74 333c
00000150: c503 053d 2090 a9bc 258e 363b 5a8b a33d
00000160: c9c2 343c 676c 73bc 2bf7 43bd 981c 56bd
00000170: f0d0 94bc ccee 7d3b 1f3c 6bbd 63d7 213d
00000180: 5908 113d 5c43 593d cf44 81bd 44fa 13bc
00000190: 1585 383d 5f9a 473c 5103 34bc a320 983c
000001a0: 0f18 23bd 340d 373d f129 32bc f140 6fba
000001b0: 581e 22bc d74c 113d aaec 99bc 168c 0aba
000001c0: c4c1 10bd dc6f 8ebc eb5b 743c 8955 003b
000001d0: 71bc d43b cf2f 803c 0228 063d 21b9 5ebc
000001e0: ec26 e9bc 466e 24bc bf10 243c 3d66 d1bc
000001f0: 5760 563d 60ec 4b3d bd3b 873d 2e3e 7f3a

fc2.weight f4 [10, 128]
0.1538693 0.2084533 -0.077227265 0.09176985 -0.10896275 0.22417644 -0.25031364 -0.16559882
-0.053268746 0.15488893 -0.19447157 0.09335578 0.14542633 -0.15883102 -0.077021055 -0.016602926
-0.09609939 0.2534103 -0.18484217 -0.22463292 0.09134204 -0.20450363 0.11746788 -0.047685064
-0.30909646 -0.20538507 0.16597739 0.18645447 -0.23057532 0.04503186 -0.20107956 0.0047891466
-0.18893716 0.027921243 0.020976136 -0.029341381 -0.0033549725 0.15076992 -0.09015851 -0.19984831
-0.011115143 -0.25017798 -0.020893583 -0.029449694 -0.105500996 -0.070118375 0.02248667 0.045956753
0.13356306 0.06266782 -0.07696595 -0.117824696 0.08667004 -0.029701853 -0.09771833 -0.18483166
-0.18173394 -0.27178383 0.16651738 -0.17779858 0.06480022 0.14514793 0.07995444 -0.26370093
0.100891165 0.10925864 -0.19873975 0.3095536 0.060650658 -0.17029749 0.07397654 0.10038493
0.101566024 0.031970687 0.1820273 0.08565576 0.13373014 0.16770054 -0.07049625 0.08772097
0.112544425 0.12302094 0.10958332 -0.3055765 -0.13445812 -0.02204748 0.013973262 -0.13708042
0.03733837 0.2973071 0.19161154 0.18244943 -0.22574706 0.17221396 0.119124375 0.25272387
0.10910594 -0.12250959 -0.20306155 0.040040914 0.00824396 -0.026530929 0.1537066 -0.07908214
-0.08113797 -0.026462695 0.04730194 -0.12765048 0.055121593 -0.060612954 -0.091444016 0.23576626
-0.02756607 0.14188679 -0.042805184 0.14502528 -0.16637214 0.04757967 -0.12878235 0.071102194
0.088431925 0.08141913 -0.32685566 0.066679694 -0.07866685 0.076253615 0.17831697 0.16430078
-0.17029895 -0.040473673 -0.010704877 -0.2765979 0.30201364 -0.21979746 0.22833338 0.10478285
-0.112739205 0.020423971 0.10457274 -0.2587437 -0.18268774 -0.01023633 0.14687552 -0.037974726
0.080353655 0.27712467 0.10950489 0.12399977 0.09128611 0.075598724 -0.19467746 0.23045063
0.16064835 -0.2167476 0.114325345 0.29381278 0.024286753 -0.072714664 -0.245278 -0.07548872
0.21300976 -0.086528204 -0.023504846 0.10995332 -0.26096085 0.14320207 -0.05125244 -0.22977854
0.05838746 -0.056008637 -0.010327146 -0.05390578 0.027438225 -0.09735786 0.005009376 -0.3704101
-0.09997299 0.024934808 0.16308758 -0.02104545 -0.01443245 -0.17230979 0.03831424 -0.12652288
-0.082361706 0.018998241 -0.1298407 0.18418553 -0.22377992 0.101876765 0.016613258 0.12224111
-0.033253115 0.2194089 -0.2898995 0.22106047 0.26513776 -0.03629653 0.006455042 0.096714884
0.09308576 -0.04882984 0.03349073 0.22298911 -0.23176214 -0.1367361 0.18819977 0.09367436
-0.11823571 0.029623354 0.028020406 0.09280038 0.19336137 0.116563834 0.08494682 0.15305339
-0.100194894 -0.1820643 -0.14041011 0.02829634 0.07265317 0.028616542 -0.26530197 0.01610115
0.048448436 0.18823127 -0.12602112 0.063670844 -0.05597703 -0.14609845 0.11274552 0.10535146
-0.14921421 0.07266491 0.073813744 0.27432573 -0.05563712 0.26003438 0.019584702 0.22313365
-0.10533871 0.038186207 0.03279985 0.073569775 -0.051048677 -0.124740504 0.22532581 -0.10867892
-0.206416 0.04053771 0.075091176 -0.10332841 0.2352871 -0.0007815441 0.18242091 -0.124216
00000000: ea8f 1d3e c874 553e 5429 9ebd d5f1 bb3d
00000010: dd27 dfbd 828e 653e 1c29 80be bd92 29be
00000020: 5430 5abd 349b 1e3e 8e23 47be 5131 bf3d
00000030: a4ea 143e 99a4 22be 37bd 9dbd dc02 88bc
00000040: c2cf c4bd ffbe 813e 4447 3dbe 2c06 66be
00000050: 8911 bb3d 6669 51be 0093 f03d 6a51 43bd
00000060: e441 9ebe 7750 52be faf5 293e eced 3e3e
00000070: f01b 6cbe 5473 383d cde7 4dbe 46ee 9c3b
00000080: be78 41be 17bb e43c 25d6 ab3c 565d f0bc
00000090: 19df 5bbb 6e63 1a3e 06a5 b8bd 09a5 4cbe
000000a0: 4a1c 36bc 5417 80be 0529 abbc 7c40 f1bc
000000b0: e810 d8bd 399a 8fbd f735 b83c 263d 3c3d
000000c0: c1c4 083e fc57 803d 53a0 9dbd 134e f1bd
000000d0: 1080 b13d 4d51 f3bc 8c20 c8bd 8344 3dbe
000000e0: 7618 3abe 4027 8bbe 8883 2a3e d510 36be
000000f0: fab5 843d a9a1 143e 27bf a33d cf03 87be
00000100: 07a0 ce3d fec2 df3d 6f82 4bbe cf7d 9e3e
00000110: d36c 783d 7762 2ebe 0381 973d 9d96 cd3d
00000120: d901 d03d b2f3 023d 5d65 3a3e 496c af3d
00000130: 8ef0 083e b1b9 2b3e 5760 90bd 0da7 b33d
00000140: b17d e63d 67f2 fb3d 386d e03d 8674 9cbe
00000150: 64af 09be eb9c b4bc 1cf0 643c cf5e 0cbe
00000160: 1ef0 183d a338 983e d135 443e 06d4 3a3e
00000170: 3d2a 67be db58 303e 7bf7 f33d 0665 813e
00000180: ef72 df3d 4fe6 fabd 5eef 4fbe f101 243d
00000190: ad11 073c 6457 d9bc 4365 1d3e d1f5 a1bd
000001a0: aa2b a6bd 4bc8 d8bc aebf 413d cfb6 02be
000001b0: 2ec7 613d 4a45 78bd 0047 bbbd b66c 713e
000001c0: 3dd2 e1bc c54a 113e 7d54 2fbd 8281 143e
000001d0: 755d 2abe e6e2 423d 85df 03be 079e 913d
000001e0: cc1b b53d 13bf a63d a059 a7be 5d8f 883d
000001f0: 161c a1bd db2a 9c3d b998 363e 773e 283e
00000200: d962 2ebe b9c7 25bd 8263 2fbc 3d9e 8dbe
00000210: 88a1 9a3e 9612 61be 3ad0 693e 6498 d63d
00000220: d0e3 e6bd 2c50 a73c 3c2a d63d 0e7a 84be
00000230: 7f12 3bbe 48b6 27bc 8966 163e 638b 1bbd
00000240: 7590 a43d 49e3 8d3e 1a44 e03d 97f3 fd3d
00000250: 36f4 ba3d 81d3 9a3d 8759 47be 40fb 6b3e
00000260: 0081 243e 15f3 5dbe 6823 ea3d a16e 963e
00000270: 03f5 c63c 6deb 94bd 282a 7bbe d499 9abd
00000280: 3b1f 5a3e b335 b1bd 3c8d c0bc 352f e13d
00000290: a99c 85be 90a3 123e 14ee 51bd 114b 6bbe
000002a0: b027 6f3d 5069 65bd 3133 29bc 4fcc 5cbd
000002b0: 21c6 e03c 8f63 c7bd b125 a43b 65a6 bdbe
000002c0: a4be ccbd 1544 cc3c 6e00 273e 8267 acbc
000002d0: 1576 6cbc fa71 30be 64ef 1c3d 378f 01be
000002e0: 41ad a8bd 33a2 9b3c f6f4 04be 229b 3c3e
000002f0: 9026 65be c4a4 d03d 8718 883c 8c59 fa3d
00000300: 6b34 08bd baac 603e b56d 94be ad5d 623e
00000310: 23c0 873e acab 14bd d184 d33b 7412 c63d
00000320: bfa3 be3d cc01 48bd 932d 093d 4257 643e
00000330: 0e53 6dbe 8c04 0cbe 71b7 403e 58d8 bf3d
00000340: 9025 f2bd adac f23c 0d8b e53c 200e be3d
00000350: 8600 463e 05b9 ee3d 99f8 ad3d 07ba 1c3e
00000360: fb32 cdbd 106f 3abe abc7 0fbe bacd e73c
00000370: 2fcb 943d 3d6d ea3c a9d5 87be 8fe6 833c
00000380: de71 463d b3bf 403e ae0b 01be dc65 823d
00000390: 2c48 65bd d59a 15be 20e7 e63d 82c2 d73d
000003a0: 9ccb 18be 57d1 943d a92b 973d 6c74 8c3e
000003b0: c0e3 63bd 3a23 853e 1970 a03c 267d 643e
000003c0: d2bb d7bd 2469 1c3d 2359 063d c0ab 963d
000003d0: 6b18 51bd f377 ffbd cfbb 663e 0e93 debd
000003e0: b75e 53be df0a 263d 67c9 993d d89d d3bd
000003f0: 1aef 703e 89e0 4cba 8ccc 3a3e f564 febd

fc2.bias f4 [10]
-0.015537449 0.11102728 -0.041654263 -0.12032713 -0.011675364 -0.07115379 -0.10629799 -0.12995382
0.033992846 -0.018270051
00000000: c990 7ebc 4562 e33d a99d 2abd 126e f6bd
00000010: 074a 3fbc 14b9 91bd c3b2 d9bd 9d12 05be
00000020: 153c 0b3d 13ab 95bc
